notebooks/models/03_pytorch_computer_vision_model_2.pth (torch, 35506 bytes, 10 tensors)

block_1.0.weight f4 [10, 1, 3, 3]
00000000: 6ebf 873e 793e 6e3e 7a25 9fbe e74c 253e
00000010: 5b81 163e 20e0 603d 807d bebe d175 1a3e
00000020: 88aa ce3e d6d2 8abe aba0 bb3e c81a d7bd
00000030: a20d aa3e 57c5 d83e f916 f03d 6b1f babd
00000040: ceab bf3e 891a 313c 6ff6 f2be 670d 20be
00000050: 8da6 70bc b997 28bf 8845 30bf b65c 6a3e
00000060: 9922 48bf 469a 14bf 6a1a 223d eb5d 47bf
00000070: 9e30 72bf 7c1c 33bf ae2b 763e 80aa 54bf
00000080: 35db 673d 54e0 943e 0b5e 23bd 579c d73e
00000090: 9a7b 12bc a353 9e3e 1ba1 26be dd41 22be
000000a0: dbda 943e a510 6abe 9744 8c3d 6fc8 a73e
000000b0: 8a2e 143e 86b2 18be c17b 3b3e aa80 6a3d
000000c0: 52e3 283e 6ab8 52be fb2e a9be 74be 03be
000000d0: 5fae 83be c34e 873e b916 2e3e 450c 063e
000000e0: 411c b63c 6408 debc 1a56 ad3d 2c5b 6dbe
000000f0: 1bb5 79bd 96c9 f5be d7a5 703c 76cd ddbd
00000100: f6fd 6a3d c2f6 00be 1cbc a53e 1510 8bbe
00000110: 743d a3be c905 1fbe d3d0 d03e 675b 4a3e
00000120: 45cf e53e f225 8fbe 6f63 dabe ed31 87be
00000130: 4f60 a4be 0047 943d b2a9 833e 0435 d23e
00000140: 5864 bebd 7451 68be 7806 343e d173 0abe
00000150: a2ea 4e3e 6221 a5bd 2656 413e b79e 84be
00000160: 6e86 2cbe 7a00 cf3d
0.26513237 0.23266019 -0.3108328 0.16142617 0.14697783 0.054901242 -0.37205124 0.15084006
0.4036448 -0.2711398 0.36646017 -0.10503155 0.33213526 0.42338058 0.11723132 -0.09088024
0.37435764 0.010809549 -0.4745364 -0.15630113 -0.014688146 -0.6585651 -0.68856096 0.22886929
-0.7817779 -0.580479 0.03957597 -0.7787768 -0.94605434 -0.6996534 0.240401 -0.8307266
0.056605536 0.290774 -0.03988461 0.42111465 -0.008940602 0.30923185 -0.16272394 -0.15845437
0.29073223 -0.22857912 0.0684902 0.32770106 0.14470878 -0.14911851 0.18308927 0.05725161
0.16492966 -0.20578161 -0.33043656 -0.12865621 -0.25718972 0.26427278 0.17000856 0.13090618
0.02223027 -0.02710361 0.08463688 -0.2317931 -0.06096373 -0.4800536 0.014687977 -0.10830204
0.057371102 -0.1259413 0.3237008 -0.27160707 -0.31882823 -0.1552955 0.4078432 0.1976143
0.44884697 -0.27958637 -0.42653987 -0.26405278 -0.32104728 0.07240105 0.25715405 0.41056073
-0.09296483 -0.22687322 0.17580593 -0.13520743 0.20206693 -0.08063008 0.1888052 -0.2590234
-0.16848156 0.10107513

block_1.0.bias f4 [10]
00000000: e7ee 86bc fda5 a33d 5bcf 4d3e 8556 603e
00000010: 7ca0 683d c123 47be 6fdc 083e 1bed 3abd
00000020: fe4a 36bd 9ae4 a5be
-0.01647134 0.07990644 0.20098631 0.21908005 0.056793675 -0.19447233 0.13365339 -0.045636278
-0.044505112 -0.32400972

block_1.2.weight f4 [10, 10, 3, 3]
00000000: 3cc2 a43d ae7d 023d 3273 86bd ce0f d6bd
00000010: bed0 20be 574c 5bbe 13c6 16be 8eeb 51be
00000020: 9ad5 2bbe c8e7 abbc 458f ff3c 83cb aabd
00000030: 9bb3 febd c402 85be 1a7e 68be 07e8 bbbd
00000040: 5a55 14be 37d2 59be b318 6dbc 6562 323d
00000050: cf6d ef3d 1951 223d 65ff 593e 6989 183e
00000060: 2b7d afbd cb43 d43c 7ef7 e53d 7bea 17be
00000070: 05cd a3bc 1405 29be 5996 043d fd7e 18bd
00000080: 3f93 07be d12f 3b3e 2939 2c3d 0c0c 1e3d
00000090: 296b d3bd 5847 19be 5626 48bd 8897 e3bd
000000a0: 4212 6abd 6f49 47be e5c5 fb3d ef1e cebd
000000b0: b7e7 7bbd 53fb b73c ebdc 5e3d c7b1 ad3d
000000c0: e05e c43d 0c3b abbd 8854 e53c 4fa1 38bd
000000d0: 9f8a 4bbc 749d 9ebd d673 403e 664f 20bd
000000e0: 8465 103d 4dae 053e b83f 7c3d f5fe 21bd
000000f0: 4fc7 683d a7dd 22bb 1324 f4bc 7df4 b4bd
00000100: 6d54 3f3d 5997 4abc a81e 2cbd 06af b23d
00000110: e5e7 ab3c f564 eabc 4857 6dbd f7e2 18bc
00000120: 773f 603d a0be a8bc 76dd 57bd 0d04 29bd
00000130: e272 89bd 4fde 4a3d 3912 103e 58ec b3bd
00000140: a96b 8f3c 6107 5f3d 0d91 9c3c d0c7 19bd
00000150: 1a5a 613d c5e4 623d b675 213d d7bc 97bc
00000160: c4a8 e4bc feb1 383c 5ffd 08bd b722 6abd
00000170: 41fb 813d 02d5 d03d 564e 3bbb e544 89bc
00000180: f1a3 43ba d211 083c 2481 9f3c ceeb e93c
00000190: 305c b7bd 98d7 63bc 8e6c c93d e5cf 6a3d
000001a0: 43f7 1c3c 6be9 b8bd 5c43 96bd 356e d4bd
000001b0: 0d91 0dbd c7d5 0c3d 864b 833d 71ff 483d
000001c0: 8649 c2bd 72b7 8ebd d5a2 8dbc b487 cf3d
000001d0: 5659 d13b 184c 853c 4c43 6e3d b133 3bbd
000001e0: 3e18 91bd 6272 8d3d 2f56 4ebd de72 9dbc
000001f0: 0576 dabd 1a44 973d 72c5 9f3d f01d 073d
00000200: e710 98bd 4021 febd 7070 bfbd 4717 a43d
00000210: 436d 343d 7177 bc3d c224 6e3d ee0e db3c
00000220: 9f1c 8bba b52a a4bd 44f0 b8bd f5dc c9bd
00000230: 4879 333d 0e55 54bd e635 aebc f588 78bd
00000240: 0fe8 05bd eddd aebd 685a 94bd c32a 283d
00000250: bb50 bcbc 7c04 923d 2312 f0bc f5f0 a7bd
00000260: 0649 bfbc c63c 38bd 474d 02bd 532e d4bd
00000270: 24a7 713d c8c9 8fbd 1f6b 613d e33c 483d
00000280: 8d94 a03d efa5 a1bd 8e57 a53d d0cc 35bd
00000290: 1e6a 1d3d 6582 c73d 18d9 85bc a6b6 8f3a
000002a0: e5f4 d1bc b836 aebd 584a 783d 774e d6bd
000002b0: fcfa 853d ec8b a13d 7d0d cc3d 47eb cbbc
000002c0: 665c b1bd bd1f c23c b483 6e3d a7dc d6bd
000002d0: 24fa c2bc f288 82bd dc93 3abc c21b 53bd
000002e0: 4a32 32bd 0b82 08bd 41b6 cbbd 60be ae3d
000002f0: 9529 b33d e6a8 89bc f898 4fbc 772a 33bd
00000300: 3af1 c2bd 7bcd d1bd 08e2 1b3d 45ce 6ebd
00000310: 3642 8fbd f75a 2fbc e1d8 22bd 26da 21bd
00000320: e044 2fbb 19b6 b9bc 923b 16bd a995 52bd
00000330: 1202 aebd c588 b73d eaa9 2cbd dd2c bc3c
00000340: ecb4 29bd 9f31 f33a aff0 c63d 33f1 433d
00000350: 2d09 b7bd 6456 173d e237 c43d 9541 da3c
00000360: b293 8f3d ed49 d33d b919 88bc 1830 b33c
00000370: 83b1 96bd 5aaa b1bc ffde 973d a9e4 4f3d
00000380: a54a 91bd fa1b adbd f885 93bd 410b d5bd
00000390: 7f94 a6bd 95bc d5bc f5af 913d 974e 903c
000003a0: 6a1f a4bd 1d2e adbd 1e02 413d 249e abbd
000003b0: 146b 96bc 36e0 4a3d c0b9 4dbd 040f 3bbc
000003c0: f5f1 25bc bef6 cebc 0fd1 5ebd 486c c0bd
000003d0: be84 aebd 862a 67bd d587 d03d 2ccc 50bd
000003e0: 569c 90bd 2026 d43c bab3 e63c b112 683d
000003f0: 73cc a33d 39e1 703d e51f d6bd 8d3d 1f3c
0.0804486 0.03185814 -0.065649405 -0.10452233 -0.15704629 -0.2141584 -0.14723997 -0.20500013
-0.16780701 -0.020984545 0.031196246 -0.08339598 -0.12436601 -0.25978673 -0.22704354 -0.09175115
-0.14485684 -0.21271597 -0.014471221 0.043550868 0.11690866 0.039628122 0.21288832 0.14896168
-0.08568796 0.025911232 0.11228846 -0.14835541 -0.019995222 -0.16505843 0.032369945 -0.03723048
-0.13239764 0.1827996 0.0420467 0.038585708 -0.103231736 -0.14968622 -0.048864685 -0.11112887
-0.05714632 -0.19461606 0.12293605 -0.10064494 -0.061500277 0.022458708 0.054409903 0.08481174
0.095884085 -0.08360872 0.02799441 -0.04507571 -0.012423187 -0.077448756 0.18794188 -0.03913822
0.035253063 0.13054772 0.061584204 -0.039549787 0.0568307 -0.0024851353 -0.029802358 -0.08835695
0.046711374 -0.012365186 -0.042021424 0.08724789 0.0209846 -0.028612593 -0.057944566 -0.009331456
0.054748025 -0.02059871 -0.052701436 -0.04126363 -0.06711365 0.049528416 0.14069451 -0.08785313
0.017507391 0.054450396 0.019112134 -0.03754407 0.05501757 0.055393953 0.0394189 -0.018522663
-0.027912505 0.011272905 -0.03344476 -0.057162013 0.06346751 0.10196878 -0.0028580627 -0.016756484
-0.0007463089 0.00830503 0.019470759 0.028554823 -0.0895313 -0.013906382 0.09835158 0.05732717
0.009580436 -0.09028896 -0.073370665 -0.10372583 -0.03456216 0.03438356 0.06410889 0.049071733
-0.0948668 -0.06968583 -0.017289558 0.10133305 0.0063888235 0.016271636 0.058169648 -0.045703594
-0.07084702 0.069065824 -0.05037516 -0.019219812 -0.10667042 0.07386036 0.078013316 0.032987535
-0.07425099 -0.12408686 -0.093476176 0.08012252 0.044049513 0.09202469 0.058140524 0.026740517
-0.0010613388 -0.08015958 -0.09030202 -0.09856597 0.043816835 -0.051838927 -0.021265935 -0.060677487
-0.03269201 -0.08538423 -0.07243806 0.041056406 -0.022987714 0.071297616 -0.029305523 -0.08200256
-0.02335025 -0.044979833 -0.03181198 -0.10360398 0.05899729 -0.070209086 0.0550338 0.04888619
0.07840834 -0.078929774 0.0807334 -0.044384778 0.03843128 0.09741668 -0.01633887 0.0010964468
-0.02562947 -0.085065305 0.060617775 -0.10464185 0.06542012 0.07888016 0.0996351 -0.024892462
-0.08660202 0.023696775 0.05823107 -0.10491305 -0.023800917 -0.063737765 -0.0113877915 -0.051540144
-0.04350499 -0.033327144 -0.099468715 0.08532405 0.087481655 -0.01680417 -0.012670748 -0.04374167
-0.095186666 -0.102442704 0.038057357 -0.058302183 -0.069950506 -0.01070284 -0.039757613 -0.039514683
-0.0026743934 -0.022669839 -0.036677904 -0.05141226 -0.08496489 0.089616336 -0.04215423 0.022970611
-0.041432306 0.0018554217 0.097138755 0.047837447 -0.08937297 0.036947623 0.09580971 0.0266426
0.070105925 0.103168346 -0.016613828 0.021873519 -0.073580764 -0.021687675 0.0741558 0.050755177
-0.070943154 -0.08452602 -0.07203287 -0.10402537 -0.08133792 -0.0260909 0.07113639 0.0176156
-0.08013804 -0.08456061 0.04712116 -0.08379772 -0.018361606 0.04953023 -0.050225973 -0.011417154
-0.010128488 -0.02526414 -0.054398593 -0.09395653 -0.08521412 -0.056437038 0.10182158 -0.050975963
-0.07061069 0.025897086 0.028161872 0.05665845 0.0799798 0.05880854 -0.10455302 0.009719265

block_1.2.bias f4 [10]
00000000: 084a b03e 7490 c4bc 024e 79bd a8a9 ce3e
00000010: af39 eabd e4c5 cebc 07bf 3f3e cf56 6cbd
00000020: ba56 8d3e ccf3 803d
0.3443148 -0.023994662 -0.06086541 0.40363812 -0.114367835 -0.025240846 0.18725215 -0.057699975
0.2760523 0.062965006

block_2.0.weight f4 [10, 10, 3, 3]
00000000: c866 a73b cd1d eabd 6201 55bd 47bb 21bc
00000010: 0144 d43b 7b44 f63d eba4 9bbd b891 873d
00000020: 7d1a 023e 26de 663d 773c c8bd 0935 28bd
00000030: f540 b2bd e29f 89bd feba 6f3d 7dce 41bc
00000040: 2bdb 3d3d 3ece 7dbd a4f3 813c 69da 82bd
00000050: d378 573d 1780 3ebd f4ba d8bc 9099 bbbd
00000060: c954 ad39 3d49 cd3d ceb2 523d da40 1abe
00000070: 4b0c 353d 1a76 23bd 272d cabd b65c bd3d
00000080: 3ef5 95bd 7043 f53d 37b1 00be 3f8c 03be
00000090: 63cc 9f3c dde5 2c3d e8f8 a83c d9c7 3ebd
000000a0: 6fe2 da3d d4ae 8fbc a285 87bd fec2 2fbd
000000b0: 6142 d13d a5e4 bfbc e68d 0ebd 720c a2bd
000000c0: 1c0a d0bc 35b2 9dbd 3723 c2bd bb23 a03d
000000d0: 26c9 e73d 63b0 a93d 0547 66be 8316 1a3e
000000e0: 0c43 02be a5e9 363d d0f6 0f3e 728f 6c3d
000000f0: cf13 883e 6328 de3d 40a5 1bbd f27e 5c3c
00000100: c6da 253d 893b 893c de53 11bd f3f3 ae3d
00000110: 5fe1 ccbd 1438 0d3d bf52 f3bc b3c2 31bd
00000120: 00ac 36be e9cf 86bd c392 10bd adb6 813d
00000130: 187f 043e 0bf5 ac3c fe06 a3bc 7588 edbd
00000140: 89a6 12bc c943 bd3d cb81 afbd 8b34 803d
00000150: f076 df3d 08e5 b03c 2380 48bd 45ed a33d
00000160: 8897 0d3d b18f 6b3d eef6 e3bc fea5 38be
00000170: b693 14be ae4b 0d3e 5078 67be eca1 da3b
00000180: 6884 0bbd 35ef fb3d 9c6c 753c af4e 423d
00000190: 58b2 22bd 47b2 c8bd e789 0ebd 3b47 bb3d
000001a0: a6e2 e3bc da3c df3c de83 4bbd 2e97 8b3d
000001b0: 2095 803d 7809 1c3d 7349 5abd 53c7 b1bd
000001c0: e88b 593b 5e1f 82bd 7a12 b33d 3078 cebd
000001d0: 5c98 403d c660 24be 6cff b63e 0309 d33e
000001e0: 7858 9cbe f952 523f 41dd b63e 4734 56bf
000001f0: d38a 09be 6152 eebd e4e0 783c acf0 f83d
00000200: e1d7 9fbd 207d 6cbd a00e 573c 8dd8 fcbc
00000210: 5d16 c63c 7cd0 d6bd dc69 f1bc ee28 0cbe
00000220: 2d8d 4fbe 562e 65bd a36b ab3b 7b23 e63d
00000230: dc0b ebbd 4208 8b3e b686 603e 9d6e 5b3d
00000240: 80f7 2bbf 2673 e23d 69e5 013e c3be 1dbf
00000250: f491 bb3e 923e ec3e 86a2 95be 1ae3 d2bc
00000260: 5578 85bd 1ad4 c0bd 5ee5 91be 1f52 aabd
00000270: 5ef3 a6be 95cd 9ebd 90ef 1abe dbb0 8ebe
00000280: 196c f4bd 0262 72be e0c9 01bf 102f d03d
00000290: b2ea e53e 12d0 52be 1369 ed3e f323 bd3e
000002a0: c36c a3be 7203 11be 0d19 17be 192e 903e
000002b0: 9aef cabd 33ed 35be 3c14 713e 13d3 e33c
000002c0: 24d4 49be 2c6f 92be 4ae9 c23d 4427 113e
000002d0: 2148 38bd 47f0 353d 969b 593c eaad 7fbd
000002e0: 3ecd 0fbe c225 dfbd 271e 90bd fd36 babd
000002f0: 200a 27bd 16d7 e3bc c72c 5ebd 593b 14bd
00000300: e910 22bd e13b d23d 6287 1dbd 3e67 9dbd
00000310: 690a 303d 098d 96bb 9503 a53d f9f5 863d
00000320: 0cb3 c63d a14d 9ebd b747 8a3d 595e b53d
00000330: c9ba 55bd ea35 c63d 9deb a13d be66 c4bd
00000340: 80bb 74bd 3bd9 993d c4bc 5dbe 040e 083d
00000350: 5b8e 353e d905 54be 8164 213c 3f7f 7ebd
00000360: b811 a53d 0784 d33d af71 e13c d3f6 8dbd
00000370: 42fb 7a3d ce8b d33c 0415 483c b02f e13c
00000380: 8aba 8a3d b31f 60bd ea7a 31bd 8185 393d
00000390: de73 d9bc 12e2 a33d b645 253c 2fbb 5fbd
000003a0: 28bf 03bd 55cf 88bc ab05 783d 93be 84bd
000003b0: 17fe 80bd b80f 16bd bda1 b2bd e1c5 ab3d
000003c0: 4ee3 17be e563 37be 673e 45bd 1425 11bb
000003d0: 3970 10bd 6573 1b3e b5d6 bebc 2eb3 9a3d
000003e0: 7cd2 a03d 5aa2 12be 45d2 253c 71b4 8d3d
000003f0: 4580 f5bd 29a4 48be d150 623e 0616 d23c
0.005108688 -0.11431465 -0.052003272 -0.009871311 0.0064778333 0.1202478 -0.07599815 0.066195905
0.12705417 0.0563642 -0.09777158 -0.041066203 -0.08703796 -0.06719948 0.05852794 -0.011829016
0.046351593 -0.061964266 0.015863247 -0.06389315 0.05260546 -0.046508875 -0.026456334 -0.09160149
0.000330603 0.10023735 0.051440053 -0.15063801 0.044201177 -0.039907552 -0.098718934 0.09246199
-0.07322167 0.11975753 -0.12567602 -0.12846468 0.019506639 0.042211402 0.0206265 -0.04657731
0.1068772 -0.01753942 -0.06617285 -0.04291057 0.10217739 -0.023424456 -0.034803294 -0.0791253
-0.025395446 -0.07700006 -0.09479373 0.07819315 0.11317663 0.08285596 -0.2248803 0.1504765
-0.12720889 0.044656415 0.14058995 0.057753988 0.26577613 0.10847547 -0.03799939 0.0134580005
0.04049184 0.016752021 -0.035480373 0.08542623 -0.100039236 0.03447731 -0.029702542 -0.04339857
-0.1783905 -0.065826245 -0.035296213 0.06333671 0.12939107 0.02111294 -0.019900795 -0.11598293
-0.008950838 0.092414446 -0.08569678 0.06260022 0.109113574 0.021593586 -0.048950326 0.0800424
0.03456834 0.05751008 -0.027827706 -0.18032071 -0.14509472 0.13798401 -0.2260449 0.0066721346
-0.03406182 0.123014845 0.014979508 0.04743832 -0.039720863 -0.09799629 -0.034799483 0.091444455
-0.027818035 0.027250696 -0.049686305 0.068159446 0.06278443 0.038094968 -0.053292703 -0.08680596
0.0033194963 -0.06353639 0.087437585 -0.10081518 0.0470203 -0.16052541 0.35741746 0.41217813
-0.30536246 0.82157856 0.35715678 -0.8367352 -0.13431863 -0.11636806 0.015190337 0.121552795
-0.078048475 -0.057736516 0.013126045 -0.030864978 0.024180586 -0.10488984 -0.029469423 -0.13687488
-0.20268698 -0.055952393 0.005231337 0.11237236 -0.11476871 0.27154738 0.21926388 0.053572286
-0.6717453 0.11057119 0.1268517 -0.61619204 0.3663479 0.46141487 -0.29225558 -0.025743056
-0.06517092 -0.09415455 -0.28495306 -0.083164446 -0.3260755 -0.077540554 -0.15130448 -0.27869305
-0.119346805 -0.236702 -0.5069866 0.101652265 0.4490562 -0.20587185 0.46369228 0.3694149
-0.31918916 -0.1416147 -0.1475565 0.2816017 -0.099089816 -0.17766266 0.23542875 0.027810609
-0.19709831 -0.28600442 0.095171526 0.14175135 -0.044990662 0.0444186 0.0132817235 -0.062421717
-0.14043137 -0.108958736 -0.07037001 -0.090925194 -0.04078114 -0.027812522 -0.05424192 -0.03618941
-0.039566908 0.10265327 -0.03845919 -0.076857075 0.042978678 -0.0045944494 0.08057324 0.06589884
0.09702119 -0.0772965 0.0675196 0.08855886 -0.052180085 0.09678252 0.07906268 -0.09589909
-0.059749126 0.075121365 -0.2165404 0.03321649 0.17730086 -0.20705356 0.009850622 -0.06213307
0.0806002 0.103279166 0.027520029 -0.069318436 0.061274774 0.0258235 0.012212042 0.02748856
0.06773861 -0.05471773 -0.04333011 0.045293335 -0.026544508 0.08002104 0.010087421 -0.05462187
-0.032164723 -0.016700426 0.06055228 -0.06481662 -0.06298464 -0.036636084 -0.087222554 0.08387352
-0.14832804 -0.179092 -0.048155215 -0.0022147344 -0.035263274 0.15180738 -0.02329574 0.07553707
0.07852647 -0.14319745 0.010120933 0.06919182 -0.11987356 -0.19593872 0.22101142 0.025645267

block_2.0.bias f4 [10]
00000000: 896e 9fbd 4878 df3d fee1 f5bd b7dd bfbd
00000010: a195 8dbe 65b6 873d 78d7 863e 4209 033f
00000020: d04a 4a3f cb22 7bbd
-0.07784755 0.10911614 -0.12005995 -0.093684606 -0.2765322 0.06626586 0.26336265 0.51186
0.79020405 -0.061312478

block_2.2.weight f4 [10, 10, 3, 3]
00000000: 4bf8 c4bd 45ed 8dbd ace7 c6bd 2987 4dbd
00000010: 86f5 8a3d 93e0 aabc 8903 95bb 5150 afbd
00000020: f998 443d 70a5 65be 35b4 90be bfbe 03be
00000030: 6279 e0bd 63a4 30be d97e 0dbf ae89 c63e
00000040: d59a ad3e 8078 4fbf 98d3 18be ddf4 3abb
00000050: 4c53 ff3d cde9 79be a949 863d 9ea6 5f3d
00000060: e584 42bd 1e76 a73d cb73 09be 8f87 083e
00000070: 37e1 1f3e dbe6 7abd 0ff0 d2bd 5d0d 47bc
00000080: cc83 21be af2f 1d3c a6ec 163e 3da5 20be
00000090: 4436 c0bd 5ba8 6fbd 5d3d 3abe 78e8 883c
000000a0: 9ac7 663c e758 c3bd d8b8 4fbd c1ff 53bd
000000b0: 922d a9be ed9d babd cd51 0736 7319 b13d
000000c0: 9cff c8bb 21a1 383d 063f 733d 43bd d8bb
000000d0: b3e2 58bd 61f9 cfbd 7537 49be 6d85 ff3d
000000e0: c700 16be ba98 a4be 381e d33d d7bf 3b3e
000000f0: e7b8 6fbe 0e78 a03e da37 623e 9c7a 8a3e
00000100: f1dc 1d3e effe 38bd c7a5 b1bc 64fc 35be
00000110: 524f f1bc 4096 f1bb 8f8a 4cbe 0ae6 0bbd
00000120: e780 9f3e 9b59 20be 6891 be3d 4651 0e3d
00000130: 669c 96be 0b5e e63d bc5c b1be e389 e2be
00000140: 98d7 87be aa24 e1bc bc68 ca3c 43f1 92bd
00000150: d631 fa3d 82ba 82bd 054f 81bd afe0 b53d
00000160: 98b5 14bd d0a7 93bd 162a 7a3d 9321 c6ba
00000170: 1077 0a3c cdad acbd 20b9 c13c 2767 2dbd
00000180: 385f 0e3e 5d0e 0cbd bc45 3f3c f7ca 94bd
00000190: ee89 863e 7405 4cbe fc69 8abd 90db b6be
000001a0: b670 c03e 79ef 953d 24de 11bf 1f56 793e
000001b0: 8363 24bd 8581 36be c4c2 dd3d 454d 163d
000001c0: 24e4 79be 04ac 00bd 6031 4bbd 7133 8bbe
000001d0: 41e2 fabc 5dd2 da3c 8d64 0dbe 4a64 0c3e
000001e0: e575 ae3e c1e9 9dbe 622e 81be 33ce 903e
000001f0: dad0 53bd aa8c 05be 06f2 64bc 25a3 6fbd
00000200: 2e4b 4e3d a4dc d53c cb20 36be a598 e83c
00000210: 8abc ab3d 5d1a 22be 8995 19be fe53 873d
00000220: 68b7 b93d 3099 da3d 826b 7b3d 4e6a 2ebd
00000230: b5ec a93d 67d4 453e a589 a23d c7c6 1c3d
00000240: aab8 3abd ab5f 56be 5c6b 763e 771f 3fbe
00000250: 405a 0abe c7e6 543e c961 b43d e58b e1bd
00000260: 9447 0cbd 84b1 cdbd dc8a 56be 606f 943d
00000270: 3945 9ebd fa1a d2be 6cb3 053e ab6b 1b3e
00000280: 6fdb dcbe a192 913e 671c 37be 2118 cebc
00000290: faa4 58be b36c 233d 2dfc 743e a98c b3be
000002a0: c639 b83d db82 293e ce85 44bd 90d5 63bd
000002b0: 9b5b d2bb 25f4 e13d 8e77 b2bd 9d7f 29be
000002c0: b739 07bc 3b3e 70bb 7bf7 acbd aec2 e2bd
000002d0: 15fe 843d 8f2a 6dbc e3ca 75bc c187 88bd
000002e0: 7613 02bd 9ea1 d0bb 157b 37bc c798 d83d
000002f0: 6526 58bc 4ca1 38bf f94d d4bd eccc 0ebf
00000300: f503 d4be 9611 0d3f 2be3 2abe 11d7 4cbe
00000310: 64ea 633e 3133 f03e e5d6 1cbe f1a6 dcbd
00000320: 72c8 283c b483 51bd e2b5 8abd 9ef3 c53d
00000330: 8ba5 62bc 82f3 53be 6c6b 693e f17f 15bf
00000340: bf31 693d ec3c 2f3e 76ef 1f3e 9175 423c
00000350: c7a3 17be 5a5f 623c 033e acbd fa7e ba3c
00000360: 0a24 7f3d 5cd3 d0bd 56a0 f8bd 061d bebd
00000370: 5a91 833d 8a63 f7bd 9ae8 2c3c fa20 833d
00000380: 92bd dd3c eee8 b93d 9513 85bb f985 31be
00000390: ce6a b33d 2391 c9bc aeb6 efbd e6e7 e3bc
000003a0: 7380 c1bb 3b73 1dbe 39b8 d5be 0e08 76be
000003b0: d985 5b3e 39bc 57be ee3c 24be 0c85 5b3c
000003c0: 60bf f6bd 2119 6d3d 0059 163e 959d 0ebe
000003d0: e9b6 063f 7c0e 1ebd bb36 bbbd 4693 483d
000003e0: e208 9abd 5ff4 2a3e 87e4 90be 9c78 b63c
000003f0: f053 373d 1ff0 e9bd 1b1e da3d cf92 ce3c
-0.096176706 -0.06930021 -0.09712157 -0.050177727 0.06785111 -0.020859038 -0.0045475406 -0.08560241
0.04799745 -0.2242639 -0.28262487 -0.12865733 -0.10960652 -0.17250209 -0.5527168 0.38776916
0.3390719 -0.81043243 -0.14924467 -0.0028527298 0.124670595 -0.24405594 0.06557018 0.054602258
-0.04749002 0.08176826 -0.13423078 0.13332961 0.15613256 -0.061255317 -0.10299694 -0.012149182
-0.15772933 0.009593888 0.14738712 -0.15688033 -0.0938535 -0.058510166 -0.1818747 0.016712412
0.014085675 -0.09538441 -0.05071339 -0.051757578 -0.3304258 -0.09112153 2.0164182e-06 0.08647432
-0.0061339866 0.04507554 0.059386276 -0.0066143586 -0.052950572 -0.10154987 -0.19650061 0.12476621
-0.14648734 -0.3214777 0.10308498 0.183349 -0.23410378 0.31341594 0.22091618 0.2704667
0.15416314 -0.045165 -0.021685494 -0.1777206 -0.029456768 -0.0073726475 -0.19974731 -0.03415493
0.31153032 -0.15659182 0.09305078 0.034745477 -0.29416198 0.11248406 -0.34641063 -0.44245824
-0.26531672 -0.027483303 0.024708144 -0.07174923 0.12216537 -0.0638323 -0.063139 0.088807456
-0.036305994 -0.07209742 0.061075293 -0.0015116207 0.008451238 -0.08431587 0.023647845 -0.042334702
0.1390351 -0.034193385 0.011674341 -0.07265275 0.26277107 -0.19923955 -0.06758496 -0.35714388
0.37585992 0.073210664 -0.56979585 0.24349259 -0.040133964 -0.17822845 0.10828164 0.036694784
-0.24403435 -0.031414047 -0.049607635 -0.27187684 -0.030625464 0.026711637 -0.13807888 0.13710132
0.3407432 -0.30842403 -0.252307 0.28282318 -0.05171285 -0.1304194 -0.0139737185 -0.058505196
0.050364666 0.026106186 -0.17785947 0.0283931 0.0838557 -0.1583037 -0.1499845 0.06607817
0.09068185 0.106737494 0.061381824 -0.04258185 0.082971014 0.19319306 0.0793641 0.038275506
-0.045586266 -0.20934932 0.24064392 -0.18664347 -0.1351099 0.2079116 0.088077135 -0.11013011
-0.03424795 -0.10043624 -0.20951408 0.072478056 -0.07728047 -0.41036206 0.13056725 0.15177791
-0.43136165 0.2843218 -0.17881928 -0.02515799 -0.21156684 0.039898586 0.23924322 -0.35068253
0.089953944 0.16553824 -0.04797917 -0.05562359 -0.0064196116 0.11032895 -0.087142095 -0.16552587
-0.008253506 -0.0036658186 -0.08445641 -0.110722885 0.06493775 -0.014475479 -0.015001985 -0.06666518
-0.03175684 -0.0063669225 -0.011198779 0.10576015 -0.013192748 -0.7212112 -0.103664346 -0.55781436
-0.4140927 0.5510496 -0.1668822 -0.20003916 0.22257382 0.46914056 -0.15316351 -0.10774029
0.010301696 -0.051150993 -0.06772973 0.09665607 -0.013833414 -0.2069836 0.22794884 -0.5839835
0.056932207 0.17113084 0.15618691 0.01186885 -0.1480857 0.013816679 -0.08410265 0.022765625
0.06229023 -0.101965636 -0.12139957 -0.092828795 0.06424208 -0.120795324 0.010553503 0.06402774
0.027067933 0.09077631 -0.0040611723 -0.17336263 0.08760606 -0.02460534 -0.11704765 -0.027820539
-0.005905205 -0.15375988 -0.41742113 -0.2402651 0.21437778 -0.21067895 -0.16038868 0.01339842
-0.12048221 0.057885293 0.14682388 -0.139273 0.5262285 -0.038588032 -0.091412984 0.048968576
-0.075212255 0.16694783 -0.28299353 0.022274308 0.044757783 -0.114227526 0.106502734 0.025216488

block_2.2.bias f4 [10]
00000000: 4da2 793e 2eff f63c eb9d 733e 30b9 db3c
00000010: 3f31 d0bd 31cf 2e3e 118d 2dbd 885c 05be
00000020: 3090 8fbc f653 30be
0.24378319 0.030150976 0.2379071 0.026821703 -0.10165643 0.17071225 -0.04237086 -0.13023579
-0.017524809 -0.17219529

classifier.1.weight f4 [10, 490]
00000000: 7a19 47bc f26f 8c3c f0d3 b73c 66e6 46be
00000010: 9170 e73c 95ed d2bd 5ac4 1e3d 75e1 ab3d
00000020: 366d 753e b476 293e 1815 f7bd ca83 2d3d
00000030: 076a f83d 66bb 153e df8f 523d fadc bb3d
00000040: edba 153e bfea d8bd 93b9 2b3e 1aa8 db3d
00000050: 5119 aebd 6280 eebc b891 e23d 633f ce3c
00000060: 8d5d 4bbd a021 013d 02bd 83bd 964b b4bd
00000070: 654b 9fbd df06 7abc c62f 07bd cfc7 84bc
00000080: cc65 103e 720b 7fbd 64e8 8ebd 2ef3 6b3c
00000090: ba94 d1bd 0c31 f43c 0095 10be f0dc 36bc
000000a0: 79c5 4d3e c2f6 94bd ce00 9f3d 3671 19be
000000b0: 65d1 59be 5218 0cbd 97a5 04bd c03f 8f3e
000000c0: 88d4 eebc e346 2b3e 6633 e33d 0e86 45be
000000d0: 3a09 84bd 25bb f83d 7a49 f8bd 0667 923d
000000e0: 046e d53d eb2c e3bc b9fe 69be f025 c0bd
000000f0: af38 0b3d 700a 483d e2d5 e93c f811 1f3d
00000100: 2c14 fc3d 49d1 15be f657 8bbd 640d 12be
00000110: 1103 413e 0424 2e3d a747 293d 72e9 073d
00000120: edb4 30bb e3fa 4abd db5c 76bd c2fd 253e
00000130: f0d5 6ebd 5394 113d b51d 87bd c1c8 71bd
00000140: bb7d cbbd 1637 ca3d d043 0d3e 2a89 07be
00000150: fbe9 28be 05db 8a3d 0a04 36be f1ae 18be
00000160: 0590 d539 3ce1 a2bd 3281 853d 7d1e b7bd
00000170: f539 54bd 15bb 283e 60da 95bd 90b3 8dbd
00000180: 96ec 58bd 7307 873d 2281 3a3c 8ad6 47bd
00000190: 88ad d23d 32e5 46bd c00e 193e cd81 f03d
000001a0: 2e90 4a3c 35a2 693e fe3d ec3d 6aa4 243d
000001b0: 81e2 853d 07c0 6bbc ef76 293e c65a 083d
000001c0: 4f37 c63d 5802 223e 9e45 a63e 3163 d5bb
000001d0: 9cdc 233b 59aa 87bd 9324 163c e1ee f23b
000001e0: 8bb5 04be 0b22 833d b356 b9bd 5089 1abd
000001f0: 0a66 2d3e dcf7 fdbc e883 49be 6784 ecbc
00000200: a2c5 db3d aeef 3bbd 01cf 01be 3f65 6e3d
00000210: 7bdd 873d f258 b3bd 745a bb3d 02a5 4f3d
00000220: 19e2 08be fd30 08be 58d9 91bd eb3d 833d
00000230: e7e0 87bc ef0e 833d 00fb b93d 7a33 f6bd
00000240: 6126 67bc 4260 e3bd 56c7 afbd 2f61 6d3e
00000250: 95c8 c13c 83e3 163d a793 d7bd da70 9e3c
00000260: e4a0 3a3d b6f7 73bc fdfa e6bd 52aa c3bd
00000270: 2a11 35be c730 ca3c 73eb 003d 7386 13be
00000280: 436d 19be 9192 a1bd 9f09 2f3d 6b45 813d
00000290: 782d db3d 4658 6e3d 51de b3bd 9402 fb3d
000002a0: ba61 8c3c 3057 d83d 01b7 b9bd 05e0 203d
000002b0: 2d94 0c3d ec22 003d 260d 493e a74f 7ebd
000002c0: 98a7 2d3e d4a2 32be dc5a a5bd 6206 0abd
000002d0: 1848 69bd 352a 383e 0bad 6cbe bffb 183e
000002e0: 38d3 6ebd 654b 3dbd ae5d fdbc 524c b03b
000002f0: ad25 1e3e 6c9a b7bd 7a68 1dbd 5b0a dfbc
00000300: 29fa 923d 63a8 cbbd b96d 3bbd 0558 a93d
00000310: 4720 673c ad17 3c3c 276a 2fbd de6d f7bc
00000320: d46b 0f3c 9875 a0b9 982d 0f3d c582 733b
00000330: e2fc 65bd 6433 4d3e 92e0 1a3e 34af 4d3d
00000340: 5b99 8d3d 856e 3e3d 6af7 9f3d 5df4 0d3e
00000350: 320e 8a3c ee86 043e bc8d 693d 318b 6e3e
00000360: 57c8 493e 6998 013e 0738 4b3d 50c1 d1bd
00000370: 8b00 2fbd bbaf 6c3d f322 cb3d 2a46 5f3c
00000380: e2d6 1f3d c3b6 40bd ea2e 93bd 3bd0 4c3c
00000390: 3883 e4bd 55de 03be a878 bebd 9e52 23bb
000003a0: d316 06bd bd2e fdbb 7668 68bd b358 e2bc
000003b0: 4f56 cebd 59d3 8cbc 508e 8dbc bf3f ea3c
000003c0: 1df5 ab3c 7723 5dbe 3ae3 b2bd 6622 17bd
000003d0: dba7 adba 3b17 06bd 051c f73d a3f0 143e
000003e0: bf1b f63d 351b c43c f44c 0a3e ece1 c33d
000003f0: 2826 703c 551d 19ba a1a1 253e 9118 b83d
-0.01215207 0.017143223 0.022439927 -0.19423828 0.028251918 -0.102992214 0.038761474 0.08392612
0.23967442 0.16549188 -0.1206457 0.042362012 0.12129598 0.14622268 0.051406737 0.09173007
0.14622088 -0.10591649 0.1677001 0.10725422 -0.085009225 -0.029113952 0.1106295 0.02517671
-0.049649764 0.031526208 -0.06432535 -0.088034794 -0.07778052 -0.015260427 -0.033004545 -0.016208557
0.14101332 -0.062266774 -0.06977919 0.01440124 -0.102334455 0.029808544 -0.14119339 -0.011161074
0.20094861 -0.07273628 0.07763825 -0.14984593 -0.21271284 -0.03420288 -0.03238448 0.27978325
-0.029154077 0.1672626 0.11093788 -0.19289419 -0.06447072 0.1214507 -0.121233895 0.071485564
0.104213744 -0.02773138 -0.22851075 -0.09382236 0.033989605 0.04883808 0.02854437 0.038835496
0.12308535 -0.14630617 -0.068038866 -0.1426292 0.18848826 0.042514816 0.0413281 0.033181615
-0.002696331 -0.04955567 -0.060147148 0.16210082 -0.058309495 0.035541844 -0.06597463 -0.059029344
-0.099360906 0.09873788 0.137954 -0.13235918 -0.16495506 0.06780056 -0.17774978 -0.14910485
0.0004073383 -0.07953116 0.06518783 -0.08941362 -0.051813085 0.16477616 -0.07317042 -0.069190145
-0.05296 0.06593218 0.011383327 -0.048788585 0.10287005 -0.04855842 0.14947033 0.117435075
0.012363477 0.22815783 0.115352616 0.04019586 0.06537343 -0.014389045 0.16549276 0.033289693
0.09678518 0.15821207 0.3247499 -0.0065120687 0.002500332 -0.06624288 0.009163993 0.0074137305
-0.12959878 0.064029776 -0.0904974 -0.037728608 0.16933456 -0.031001978 -0.19679224 -0.028871728
0.10731055 -0.045882873 -0.12676622 0.058202025 0.06634041 -0.08757199 0.09148112 0.050694473
-0.133675 -0.13299938 -0.07121533 0.06408294 -0.016586734 0.06399333 0.090810776 -0.12021537
-0.014108271 -0.11102344 -0.08582942 0.23181604 0.023655215 0.036838066 -0.10526209 0.019340921
0.045563594 -0.014890602 -0.11278341 -0.095539704 -0.17682329 0.024681462 0.031474542 -0.14406757
-0.14983086 -0.078892834 0.042733785 0.063120686 0.10702032 0.058189653 -0.08782638 0.12256351
0.017136443 0.10563505 -0.09068108 0.03927614 0.034321 0.031283304 0.19633922 -0.06208768
0.16958463 -0.17444927 -0.08073971 -0.033697493 -0.05695352 0.1798485 -0.23112886 0.14939784
-0.058306903 -0.04621448 -0.030928459 0.005380192 0.1544406 -0.089650005 -0.038429715 -0.027226618
0.071766205 -0.099442266 -0.045758937 0.082687415 0.014106817 0.011480254 -0.042825844 -0.030203756
0.008753736 -0.00030605192 0.03495559 0.0037156802 -0.05614937 0.20039135 0.1512473 0.050215915
0.06914016 0.04649212 0.07810862 0.13862748 0.016852472 0.12942097 0.057019934 0.23295285
0.1970533 0.12655796 0.04961398 -0.102419496 -0.042725127 0.057784777 0.099187754 0.013627568
0.039023288 -0.047049295 -0.071866825 0.012500818 -0.111578405 -0.12877782 -0.09300357 -0.002492107
-0.03273661 -0.007726519 -0.056740247 -0.027630186 -0.10075056 -0.017190622 -0.017279774 0.02859485
0.020990903 -0.2159556 -0.08734746 -0.03689804 -0.0013248877 -0.032736998 0.12065891 0.1454492
0.12017011 0.023938755 0.13505918 0.095645756 0.014657535 -0.00058408576 0.16174938 0.08989061

classifier.1.bias f4 [10]
00000000: adbd 9f3d cb4e 26be e898 ee3e bd4a 89bd
00000010: a18c dabe 98a5 1abe d87c 333e afce f9bb
00000020: 21a7 1a3e 53d1 bcbd
0.0779985 -0.16240995 0.46601033 -0.06703708 -0.42685416 -0.15102232 0.17528093 -0.0076235156
0.15102817 -0.09219613
